codes/SAS-FPT/user_weights.npy (npy, 604228 bytes, 1 tensors)

array f4 [6041, 25]
00000000: d258 32bd 1f54 153a 15d5 84bc 343d b1bc
00000010: db9f 49bd da67 113d 4b20 bc3b a4f9 c53a
00000020: 671d 623d aab6 703d 4b00 0ebd a446 85bb
00000030: c918 69bd 592e 253c 4a0c c6bd 24a4 8d3c
00000040: ab0f 51bc d755 17bc c577 72bb e4e9 c3bd
00000050: 2750 213d b129 2c3d ed14 4bbb b05b a73c
00000060: db88 e43c 9b6a 843d 9f94 e5bc 966e 14bd
00000070: 700c 2a3d ff1e 74bd 58e4 083d e423 b33d
00000080: 1a7d fcbc 0fe5 eebc 2645 8abc eca3 fdbc
00000090: dbd6 86bd 285e 8d3c 5871 6bbd 94ca 7e3d
000000a0: 2043 1bbd 966a e3bd 6f49 7c3d f330 e03b
000000b0: 693b 893d 10f0 90bd e8c7 61bc 3c98 5abd
000000c0: d92b 213d a703 a3bd 6a86 403d 6996 25bd
000000d0: 1ba8 a6bb df86 c03c 1fc7 95bd e1d5 a4bc
000000e0: cd1c 5c3b 761d 51bc 727e 49bb 0278 85bc
000000f0: f62a 49bd a328 12bd 8d53 dd3c c7a6 bfbc
00000100: a2e8 f43c 3657 d2bb d35a 58bd 3be3 6d3d
00000110: 7232 0ebc a76b 8e3d c8a6 5cbd 8a60 ebbc
00000120: 7ba2 63bd be02 0a3d 247e 80bd 8db0 823d
00000130: f9fb d6bc fbcb c3bc 58e6 cc3c f748 abbd
00000140: 85b3 1abc 83f4 873d d2b6 7dbc 777f 903b
00000150: f02b 923c 31d6 53bd 7d21 84bd 8707 ce3c
00000160: efd1 76bd 1ac9 453d 4c0c ccbb dda1 b5bd
00000170: 57f9 f13c 28c1 1dbc bdef 863d e9d0 85bd
00000180: d2ec 0ebb 96cc 3fbd 112b 9e3c db03 50bd
00000190: 7fe4 c2bc c61b ecba e683 523c d084 d03c
000001a0: 784b 943d bda7 07bd 93ea 9fbc ad7c 4a3d
000001b0: 70e6 b5bd 7089 98bd b8e6 2b3d cb14 1b3d
000001c0: 80e9 a4bd f4d8 113d 420e 133d eabb c33c
000001d0: 7df4 fbbc ab47 2ebd 9be4 d0bb 897e 9abd
000001e0: af2e 3cbd 81e6 763d eb6f 4d3c 89de ddbc
000001f0: 3a40 fabc fc30 8ab9 bf36 66bc 69a3 a23d
00000200: 99d5 91bc c756 1c3c 8fcb 26bd 015f 86bd
00000210: 639f 1fbd 7e73 b4bb 3e7a 4a3b 949b acbc
00000220: 1531 373d 3cfa 1ebd cf1a 65bc 0cfb a83b
00000230: 3e41 8bbc a07b 1b3c 5f86 0abd 29b5 80bd
00000240: fef9 823c af16 4fbd 4ff4 72bc 2be1 463d
00000250: 3996 00bd 49af 1b3d 8d23 a13d f8af 1abd
00000260: f05e d6bc 0457 0d3c 7c41 0abd 4b49 a1bc
00000270: 83f4 ab3d 8097 31bc 61b5 f0bc cf10 1cbb
00000280: 7b45 96bd 6c4c 94bd ad8c b83b e327 69bd
00000290: 40fe 9d3d 2944 1c3c 1d25 fabd 960a 123d
000002a0: eef5 a93c 2ae1 c53d 55d6 d5bd e6c0 513c
000002b0: c5ff 47bd 63e6 893c 639c a9bd b6b0 9ebc
000002c0: 2253 a8bc 47f9 863c 01db 2abc 701d 72bb
000002d0: bc2e a83c 3c1b 87bd f06e 5dbc bdd7 34bd
000002e0: 4209 ee3a b5bf 903c d498 58bc e449 ac3b
000002f0: 24d0 2cbd 3a92 65bc 4fbd 26bd caf5 b3bb
00000300: f2f3 acbc 253b 6bbd 23cc 91bc c71e 75bc
00000310: 26ed bbbc d152 6e3d 7394 07bd 9287 85bb
00000320: a7c4 d13c f787 a3bc 0795 91bd 98a3 9d3c
00000330: 7863 c2bc 44e0 ffbb 03f7 093d dcf7 6ebc
00000340: 6dd7 0cbd 481c 373c 7956 8fbc 4f8f 90bd
00000350: 31d4 c03c 3dfd f3bc 49a5 c33c 7ea3 ff3c
00000360: fa93 8ebd 83c9 9d3c 738f 073d 53c5 213d
00000370: 351f e8bc 2859 023d 38f3 02bd b2d2 823d
00000380: ae5a 61bd 12df 1b3d 83ec 873c 7a33 9739
00000390: b6aa c5bd 4a21 993d 8aba 3ebd 7766 12bd
000003a0: 89e3 b73c 6507 963d f5ee 1ebd ac7b 0a3d
000003b0: 610b 053c 1a0c 23bd 284b 903d 0a66 c83a
000003c0: 9ba8 25bd f7d7 9f3c 9aa1 d53c e76a f5ba
000003d0: 6432 d63b 05c7 833d 881d 43bd f8e3 ebbb
000003e0: ac75 56bd 3482 c83d fa72 27bd cc82 cdbd
000003f0: 5194 8a3d 5c62 3b3d 1125 0c3d e1f3 bc3c
-0.043541737 0.0005696434 -0.016214887 -0.02163563 -0.049224716 0.03549943 0.0057411543 0.0015104306
0.05520382 0.058767952 -0.03466825 -0.004067259 -0.056908403 0.010081851 -0.09670313 0.017290182
-0.012760083 -0.009236774 -0.0036997658 -0.095660955 0.03938308 0.042031948 -0.0030987815 0.020429462
0.027897289 0.06465646 -0.02802497 -0.036238275 0.041515768 -0.059599873 0.03342089 0.0874708
-0.030821372 -0.029161958 -0.016878676 -0.030961953 -0.06583949 0.017256811 -0.05748114 0.062204912
-0.037905812 -0.11104314 0.06159347 0.0068417727 0.06700785 -0.07077038 -0.0137805715 -0.05336784
0.039348457 -0.07959681 0.047003187 -0.040426645 -0.0050859577 0.023501812 -0.0731337 -0.020121517
0.0033586503 -0.012763372 -0.0030745533 -0.016292576 -0.049113236 -0.035683285 0.02701738 -0.023394955
0.029896084 -0.0064190878 -0.05282099 0.058078032 -0.008679019 0.06954127 -0.053869992 -0.028732557
-0.055574875 0.03369402 -0.062740594 0.06381331 -0.026243197 -0.023900976 0.02501218 -0.08363526
-0.009442215 0.06638434 -0.015485482 0.0044097262 0.017843217 -0.05171794 -0.064517 0.025150074
-0.060258802 0.04828749 -0.006227052 -0.088687636 0.02953784 -0.009628572 0.06588695 -0.06533987
-0.0021808636 -0.046825968 0.019307645 -0.050784927 -0.023790596 -0.0018013648 0.01284883 0.025453955
0.07240957 -0.033118952 -0.019521033 0.049435306 -0.08881843 -0.07448089 0.041968077 0.037861627
-0.08052349 0.035607293 0.03590227 0.023893315 -0.03075623 -0.042548817 -0.006374908 -0.07543666
-0.04594296 0.06027842 0.01253889 -0.027083652 -0.030548204 -0.00026357907 -0.014051138 0.07941324
-0.017802047 0.009542174 -0.040721472 -0.06561089 -0.038970362 -0.005506932 0.0030895616 -0.02107028
0.044724543 -0.03881286 -0.013983442 0.0051568802 -0.016998883 0.009489924 -0.033819553 -0.062845536
0.015988346 -0.050558742 -0.0148287555 0.04855458 -0.031393263 0.03800896 0.07868109 -0.037765473
-0.026168317 0.008626703 -0.033753857 -0.01968827 0.08396246 -0.010839343 -0.029383363 -0.002381373
-0.07337471 -0.07241139 0.0056320042 -0.056922805 0.0771451 0.009537735 -0.1221411 0.035654627
0.020747151 0.09662087 -0.10441271 0.012802338 -0.048827905 0.01683349 -0.082817815 -0.019371372
-0.020547453 0.016476287 -0.010428191 -0.0036943816 0.020530097 -0.065969914 -0.013515219 -0.044151057
0.0018160718 0.017669538 -0.013220031 0.005257832 -0.042190686 -0.014011914 -0.040707882 -0.005491947
-0.021112416 -0.05742945 -0.017797535 -0.014960951 -0.02294023 0.05818445 -0.033100557 -0.004074999
0.025606466 -0.019962294 -0.07108503 0.019243047 -0.023729071 -0.007808717 0.033682834 -0.0145854615
-0.034385134 0.011176176 -0.017497288 -0.07058584 0.02353868 -0.02978384 0.023882525 0.031205889
-0.06961818 0.019261127 0.03309579 0.039494824 -0.028335193 0.031823307 -0.031970233 0.06387843
-0.05501812 0.038054533 0.01659227 0.00028839317 -0.09651701 0.074770525 -0.046564616 -0.03574225
0.022447364 0.07325629 -0.038802106 0.03380935 0.008120389 -0.039806463 0.07045585 0.0015289199
-0.040443998 0.01951216 0.026078034 -0.0018723876 0.0065367687 0.06434444 -0.047635585 -0.007198807
-0.052358314 0.09790459 -0.040881135 -0.10034713 0.0676657 0.0457481 0.034215037 0.02306551
